mzmine-community/src/test/resources/models/java_embeddings_ms2deepscore_model.pt (torch, 474566 bytes, 6 tensors)

weight f4 [100, 992]
0	0xbc89c1be	-0.016816016
1	0xbc5bbd68	-0.013411857
2	0xbcea4df6	-0.028601628
3	0x3b110180	0.0022126138
4	0xbb421f28	-0.0029620621
5	0x3cce6f58	0.025199577
6	0x3cd196d4	0.025584616
7	0xbbb9b964	-0.0056678522
8	0x3cb6383a	0.022243608
9	0x3c45f4c0	0.012082279
10	0x3c07ba64	0.008284185
11	0x3c1d5468	0.009602644
12	0xbc82d030	-0.015968412
13	0x3cd87aa8	0.026425675
14	0xbc3b3cc8	-0.011428066
15	0x3cf80d52	0.03027979
16	0xbc271cbc	-0.010199722
17	0x3c1b0adc	0.009463038
18	0xbc9bbb00	-0.019010067
19	0xbcdb0c55	-0.026739279
20	0xbcce343c	-0.025171392
21	0xbb971684	-0.0046108384
22	0xbc05a65c	-0.008157339
23	0x3bdf75b0	0.0068194494
24	0xbb10f7a8	-0.002212027
25	0xbccae219	-0.024766015
26	0x3b85a728	0.0040787645
27	0x3c2a19c0	0.010382116
28	0x3c5ef620	0.013608485
29	0x3c3f57ec	0.011678677
30	0x3c729824	0.014806781
31	0x3b979db0	0.004626952
32	0xbc83a75b	-0.016071012
33	0x3cd00fbc	0.025398128
34	0x3ae2b2a0	0.0017295666
35	0xbae41d90	-0.001740383
36	0x3c9cec86	0.019155752
37	0x3ce316ca	0.027720828
38	0x3cd24310	0.025666744
39	0x3cbeb994	0.02328185
40	0xbcb807d2	-0.022464667
41	0x3c9031c6	0.017601859
42	0xbc7b7660	-0.015348047
43	0xbc57c072	-0.013168441
44	0x3c7de98c	0.015497576
45	0x3b9be158	0.0047570877
46	0xbc4824a8	-0.012215771
47	0x3c14b8c8	0.009077258
48	0xbcb560b2	-0.022140834
49	0xbb23a898	-0.0024972316
50	0xbcb183b8	-0.021669254
51	0xbc27c482	-0.010239722
52	0xbb75e608	-0.0037521143
53	0x3c69ae20	0.014262706
54	0x3b97d418	0.004633438
55	0x3c9625e0	0.018328607
56	0xbc9e399c	-0.01931458
57	0x3a36bdc0	0.0006971024
58	0x3cedee42	0.029044274
59	0xbca750ac	-0.02042421
60	0xbc967de0	-0.018370569
61	0x3ca69fd2	0.02033988
62	0xbc9d76f4	-0.01922176
63	0x3ccd7782	0.0250814
64	0x3c7bf290	0.015377656
65	0x3cf9b1d8	0.03048031
66	0xbced1121	-0.028938832
67	0x3cd96d06	0.026541244
68	0xba8f96f0	-0.0010955017
69	0xbc1b93ec	-0.009495717
70	0x3c424e08	0.011859424
71	0xbc7f151e	-0.015569
72	0x3c76e8a4	0.015070114
73	0x3cd021b4	0.025406696
74	0x3cabcc82	0.02097154
75	0x3ce994bc	0.028513305
76	0x3ceefbd4	0.029172815
77	0x3cac5a14	0.021039046
78	0x3c960d68	0.01831694
79	0xbb462a10	-0.0030237474
80	0xbba3989c	-0.0049925577
81	0xbbf11028	-0.0073566623
82	0x3ca0b9a0	0.019619763
83	0x3c640ed8	0.013919555
84	0xbb2933f0	-0.002581831
85	0xbc66cbe6	-0.014086699
86	0xbb11a8a0	-0.0022225752
87	0xbb7faa38	-0.003901137
88	0xbb38b150	-0.0028181858
89	0x3c0718bc	0.008245643
90	0xbc87471e	-0.016513404
91	0x3bf2fd78	0.0074154697
92	0x3c3597a0	0.0110835135
93	0x3b92d3d0	0.0044808164
94	0xbc0cc418	-0.008591674
95	0x3bca0c88	0.0061660446
96	0x3c8b011e	0.016968306
97	0x3cb1db9c	0.021711163
98	0x3cb26858	0.02177827
99	0x3cbdf8b4	0.02318988
100	0x3c1ba238	0.009499125
101	0x3bd3e6f8	0.0064667426
102	0x3c0d1604	0.008611206
103	0xbc923d31	-0.017851444
104	0x3bae0178	0.0053102337
105	0xbc8ef9e0	-0.017453134
106	0xbcd6b2a3	-0.026208228
107	0xbcf954f8	-0.030436024
108	0x3cdcf656	0.02697293
109	0xbc27d4d8	-0.010243617
110	0xbbab981c	-0.0052366387
111	0x3cdcbd8e	0.026945855
112	0x3c9f6e6c	0.019461833
113	0xbc862d0c	-0.016378902
114	0xbc4dac76	-0.012553325
115	0xbc9b4db9	-0.01895796
116	0x3cc52efe	0.02407026
117	0xbca6100a	-0.02027132
118	0x3ca15836	0.019695383
119	0x3ca1b87c	0.01974129
120	0xbc84a92c	-0.016193949
121	0x3caf681a	0.021411944
122	0x3c465728	0.012105741
123	0xbc4cc846	-0.012498921
124	0x3ca4b048	0.020103589
125	0x3ca1d72a	0.019755919
126	0x39a6c300	0.00031807274
127	0xbc9bf04c	-0.01903548
128	0x3ba8ebd0	0.005155064
129	0xbba32840	-0.0049791634
130	0xbcd1c927	-0.025608612
131	0x3caaff70	0.020873755
132	0x3c9744a6	0.018465351
133	0x3b999110	0.0046864823
134	0xbc6b0580	-0.014344573
135	0x3cdbb09e	0.026817616
136	0x3bfa4428	0.0076375194
137	0x3b6adba0	0.0035836473
138	0x3c490a20	0.01227048
139	0x3cdae5e6	0.026720952
140	0x3ce74a0a	0.028233547
141	0x3c3d3c90	0.011550084
142	0x3ce7977c	0.028270476
143	0x3c0cf1a0	0.00860253
144	0x3cf213c6	0.029550444
145	0x3cf3a080	0.029739618
146	0x3cc51b08	0.024060741
147	0x3ae97ec0	0.0017814264
148	0x3c599a04	0.013281349
149	0xbcca17e4	-0.024669595
150	0xbc8f3826	-0.017482828
151	0x3c99eb5a	0.018788982
152	0xbc1186ce	-0.008882238
153	0xbcd58158	-0.026062652
154	0x3c70f488	0.014706738
155	0xba9a3e20	-0.0011767782
156	0x3c94444a	0.018098969
157	0xbc909000	-0.01764679
158	0xbcbabf04	-0.022796161
159	0xbc1b5048	-0.00947959
160	0xbce3d3c8	-0.027810946
161	0x3c7f63c4	0.015587751
162	0x3b7059e0	0.0036674663
163	0x3cedd6ee	0.02903315
164	0x3ad21040	0.0016026571
165	0x3af55b20	0.0018719174
166	0xbb2bcb40	-0.0026213676
167	0x3cd537a0	0.0260275
168	0xbd010f76	-0.031508885
169	0xbcacd1c6	-0.021096122
170	0x3c82f92c	0.015987955
171	0x3cce0c68	0.0251524
172	0x3cf66fc2	0.030082587
173	0xbc46a3ca	-0.012124011
174	0x3c1eb234	0.009686042
175	0xbccf2e88	-0.025290743
176	0x3c68ca80	0.014208436
177	0xbcf8ac93	-0.030355727
178	0x3c704ce8	0.014666773
179	0xbcafc54a	-0.02145638
180	0x3c895ad6	0.016766947
181	0xbbd544f0	-0.006508462
182	0x3c7f1d30	0.015570924
183	0x3bddfa18	0.0067741983
184	0x3c8e0e30	0.01734075
185	0x3cce97ec	0.025218926
186	0x3c807646	0.015681397
187	0x3c85d8e2	0.01633877
188	0xbcfa4377	-0.030549748
189	0x3ce2ee9c	0.027701668
190	0x3c9fd086	0.019508611
191	0x3cd39fb2	0.025832985
192	0x3cd31a1a	0.025769282
193	0xbcf05afd	-0.029340262
194	0x3cd1b4a6	0.025598835
195	0xbb50dc10	-0.0031869449
196	0xbce89ce6	-0.028395128
197	0xbca422fa	-0.02003621
198	0xbc9173bb	-0.01775538
199	0xbcf62cb7	-0.030050619
200	0xbb96e570	-0.004604988
201	0xbcee4c68	-0.029089168
202	0xbc0f3eae	-0.008742971
203	0x3bf7d278	0.0075629316
204	0xbcfd7b88	-0.030942693
205	0x3cd719ee	0.026257481
206	0xbcd0d505	-0.0254922
207	0xbac315f0	-0.0014883857
208	0x3c954974	0.018223502
209	0xbc99a6af	-0.018756239
210	0x3c0bbe34	0.008529235
211	0x3bab4b68	0.005227495
212	0x3c2e5f68	0.010642864
213	0x3baa8750	0.005204119
214	0x3cfc5cd0	0.030805975
215	0x3bd59968	0.0065185316
216	0xbcbe0308	-0.023194805
217	0xbbb821d0	-0.005619265
218	0xbb0610b8	-0.0020456742
219	0x3c7c885c	0.01541337
220	0x3c11188c	0.00885595
221	0xbbbc29f8	-0.0057423078
222	0xbc278dd8	-0.010226689
223	0x3c85d73e	0.016337987
224	0x3c9cfc3c	0.019163243
225	0xbc86af21	-0.01644093
226	0x3cdbfa4e	0.026852753
227	0x3b320810	0.002716545
228	0x3cf31844	0.029674657
229	0x3b78f4e0	0.0037987754
230	0x3c8d8c94	0.017278947
231	0x3cee19a4	0.02906496
232	0xbb8dcdf0	-0.004327528
233	0x3cc4e126	0.02403314
234	0xbc992494	-0.0186942
235	0xbc7e5b96	-0.0155247655
236	0x3c8be1e8	0.017075494
237	0xbca69b5b	-0.020337751
238	0x3cf1934e	0.029489186
239	0x3c2d2100	0.01056695
240	0x3c10a550	0.008828476
241	0xba857fa0	-0.001018513
242	0xbcb3f54c	-0.021967553
243	0x3c420b10	0.011843458
244	0xbcd71a76	-0.026257735
245	0xbbb5ddec	-0.005550137
246	0xbc5ad10e	-0.013355507
247	0x3b1ea1e0	0.0024205372
248	0x3c9fbede	0.019500192
249	0xbce862fc	-0.028367512
250	0xbc8b00c4	-0.016968139
251	0xbbe56fd0	-0.0070018545
252	0xbc8fb27a	-0.017541159
253	0xbc3620e8	-0.011116244
254	0xba419680	-0.0007384792
255	0x3ba0f3c0	0.0049118698

bias f4 [100]
0	0x3b73ba90	0.0037190057
1	0x3c9e582e	0.019329157
2	0x39701609	0.00022896392
3	0x3cd3c164	0.025849052
4	0xbcfa5f1d	-0.030562932
5	0xbc443332	-0.011975097
6	0xbb363390	-0.002780173
7	0xbc318c88	-0.010836728
8	0x3cba23d3	0.02272216
9	0xba114800	-0.000554204
10	0x3bcf39b8	0.0063240193
11	0xbbb63294	-0.0055602286
12	0xbb92cdff	-0.004480123
13	0xbbda23fe	-0.0066571226
14	0x3bd600d0	0.0065308586
15	0x3b958860	0.0045633763
16	0xbbbe2b2c	-0.0058034863
17	0xbceaa623	-0.028643673
18	0xbc05deca	-0.008170793
19	0x3cabd730	0.020976633
20	0xbc8ee958	-0.017445251
21	0xbb9f8b05	-0.0048688673
22	0x3c985e80	0.018599749
23	0x3c628178	0.013824813
24	0x3be77778	0.0070638023
25	0xbcdb93f6	-0.026803952
26	0x3cec4b20	0.028844416
27	0xbc9c2e1d	-0.019064957
28	0xbc4a3fff	-0.012344359
29	0xbce7f5b6	-0.028315406
30	0x3c285bb9	0.010275775
31	0x3ca08af5	0.01959751
32	0xbc0c1c9c	-0.008551743
33	0x3c26829b	0.010162975
34	0xbb474eb0	-0.0030411892
35	0xbceed6f3	-0.02915523
36	0x3c19901c	0.009372737
37	0x3bc076f0	0.0058735535
38	0x3c40508c	0.011737954
39	0xbc5c3572	-0.013440477
40	0x3c294d6d	0.010333401
41	0xbc778f3c	-0.015109833
42	0x3cd66ec4	0.026175864
43	0xbc52524a	-0.012837002
44	0x3c730666	0.0148330685
45	0xbcf14a25	-0.0294543
46	0xbc7b50d2	-0.015339093
47	0x3cc94ece	0.02457371
48	0x3ca277b8	0.019832477
49	0xbc87bb6a	-0.016568858
50	0xbcaa6f17	-0.020804925
51	0xbc954ca2	-0.018225018
52	0xbcd4ccd6	-0.02597658
53	0x39bc11fc	0.00035871554
54	0x3cc30a8a	0.023808736
55	0xbc2d051a	-0.010560298
56	0xbb3ae34a	-0.0028516822
57	0xbc87d75d	-0.016582185
58	0x3ba41bb0	0.0050081834
59	0x3ca74c42	0.020422105
60	0x3c3013a0	0.010746866
61	0x3cf1d8b3	0.029522276
62	0x3cc8e098	0.024521157
63	0x3b9fdafd	0.0048784004
64	0xbc99eb40	-0.018788934
65	0x3cca8c76	0.02472518
66	0xbb2ce6ff	-0.0026382802
67	0xbce9730d	-0.028497243
68	0x3b949f08	0.0045355596
69	0x3cf5be2c	0.029997908
70	0xbd017ed6	-0.0316151
71	0xbc8c7ddf	-0.017149864
72	0xbc0e26ea	-0.00867627
73	0x3c215432	0.009846734
74	0xbccbc937	-0.02487622
75	0xbc922e72	-0.017844412
76	0xbbb84608	-0.0056235828
77	0xbca50542	-0.020144109
78	0xbc963eac	-0.018340431
79	0xbcc0218c	-0.023453496
80	0xbd00b144	-0.031419054
81	0x3ae89e39	0.0017747349
82	0x3ccfae78	0.025351748
83	0xbb8afdff	-0.0042417045
84	0xbc3cec7b	-0.011530991
85	0x3cfb044e	0.030641701
86	0xbca78861	-0.020450773
87	0x3bd3661b	0.006451381
88	0xbcc6f26c	-0.024285518
89	0xbc8d9880	-0.017284632
90	0xbb8d65d1	-0.004315116
91	0xbc318ac0	-0.010836303
92	0xbc56373e	-0.013074694
93	0xbcc86522	-0.024462286
94	0xbd002f03	-0.031294834
95	0x3c3ab9c0	0.011396825
96	0xbc120512	-0.008912342
97	0xbb6ec7c0	-0.0036434978
98	0x3bbbac48	0.0057273246
99	0xbc341046	-0.010990208

weight f4 [100, 100]
0	0xbd4989b3	-0.049203586
1	0xbd199814	-0.03749855
2	0xbda7e7b0	-0.08198488
3	0xbdc4995b	-0.09599563
4	0x3d9dcc11	0.07704938
5	0x3dc7e3b3	0.09760227
6	0x3d2990a2	0.0413977
7	0xbc31fef0	-0.0108640045
8	0x3dbd35eb	0.092388
9	0x3d6c490e	0.057686858
10	0xbd3af550	-0.045644104
11	0xbdb333c3	-0.08750107
12	0xbda224b2	-0.07917155
13	0xbcc088e8	-0.023502782
14	0xbd4cd26d	-0.050005365
15	0xbd60493d	-0.054757345
16	0xbd7cd54a	-0.061726846
17	0xbd67bb8a	-0.056575336
18	0xbd73ba47	-0.05950382
19	0xbda46c92	-0.08028521
20	0x3db5d593	0.08878627
21	0xbd8b868d	-0.06812773
22	0xbdbff6ef	-0.09373271
23	0x3dc2d8e1	0.095140226
24	0x3d7dd476	0.061970197
25	0xbbf3e920	-0.007443562
26	0xbd33e983	-0.043923866
27	0xbd811375	-0.06302539
28	0x3c5df340	0.013546765
29	0xbcd42880	-0.025898218
30	0x3d84660f	0.06464779
31	0xbd6ef58a	-0.058339633
32	0x3b7593c0	0.00374721
33	0xbd8428ac	-0.0645307
34	0xbd950925	-0.07277135
35	0xbc8e1ac8	-0.017346755
36	0xbd877d84	-0.06615737
37	0x3d7cc7d2	0.061714
38	0x3c2004d8	0.00976678
39	0xbd8654b2	-0.06559123
40	0x3d82337b	0.06357475
41	0xbd80e045	-0.06292776
42	0xbd96914d	-0.07351933
43	0x3d2ba6da	0.04190717
44	0xbbacc050	-0.005271949
45	0xbd2e04cd	-0.042485047
46	0xbd208f7a	-0.03919933
47	0x3db34f51	0.08755363
48	0xbafc9140	-0.0019269362
49	0x3d5c7402	0.05382157
50	0xbdc7b183	-0.097506545
51	0xbda52305	-0.0806332
52	0xbce12698	-0.027484223
53	0xbd3cd853	-0.04610474
54	0xbd9a5afa	-0.07536884
55	0xbd662b4d	-0.05619364
56	0xbd9f316a	-0.07773097
57	0xbd7059f7	-0.058679547
58	0x3d7fee1a	0.06248293
59	0xbc4369e8	-0.0119271055
60	0xbc713f30	-0.014724538
61	0x3dac3197	0.08407896
62	0xbca26d54	-0.019827522
63	0xbd85f632	-0.06541099
64	0x3c3154d8	0.010823451
65	0x3ca86238	0.020554647
66	0x3d08876e	0.03333228
67	0x3d72cbf2	0.05927653
68	0x3d959e03	0.07305529
69	0x3d61e07e	0.055145733
70	0xbd712f43	-0.058882963
71	0xbca465b4	-0.020068027
72	0xbcbff38c	-0.023431562
73	0x3d8ac001	0.06774903
74	0x3cf9dacc	0.030499838
75	0xbc79e1f0	-0.015251622
76	0xbdb4a52a	-0.08820565
77	0x3d9436b5	0.07236997
78	0x3ca1bc34	0.019743063
79	0xb9c9a800	-0.00038462877
80	0xbc051700	-0.008123159
81	0x3d8e1d95	0.06939236
82	0xbdccb4f8	-0.099954545
83	0xbd8a0245	-0.06738714
84	0x3d93a0f7	0.07208436
85	0x3d70e0f2	0.058808275
86	0x3cb8d488	0.02256228
87	0xbd68dd20	-0.056851506
88	0x3d8fef71	0.07028092
89	0x3d6b3086	0.057419322
90	0xbd560d03	-0.052258503
91	0xbd4c0d67	-0.04981747
92	0xbd3cc323	-0.046084534
93	0xbcd0e2ec	-0.02549883
94	0x3d736c5a	0.059429504
95	0x3d98bc99	0.07457847
96	0xbaf81780	-0.0018927902
97	0xbdca6783	-0.098830245
98	0x3dcc6ea3	0.0998204
99	0x3dc0c0a1	0.09411741
100	0xbdb13d30	-0.08654249
101	0xbdc00518	-0.093759716
102	0x3dc8efc9	0.098113604
103	0xbcdc65e0	-0.026904047
104	0x3ca17ea8	0.019713715
105	0xbca31588	-0.019907728
106	0xbc4f8fa8	-0.012668528
107	0x3d30d3be	0.043170683
108	0xbdc6c008	-0.09704596
109	0x3d366a5a	0.04453502
110	0x3d05f9f2	0.03270907
111	0x3cdaec9c	0.026724152
112	0xbd82874d	-0.06373463
113	0x3dac0ef5	0.0840129
114	0x3b5a2160	0.0033284053
115	0x3dc54c65	0.09633712
116	0x3d36fd32	0.04467506
117	0xbd003dea	-0.031309046
118	0xbdaf5675	-0.08561412
119	0x3d8de0ff	0.0692768
120	0xbd8c5430	-0.06851995
121	0xbd80a576	-0.06281559
122	0x3cca6c94	0.024709977
123	0xbdba3622	-0.09092356
124	0xbda569da	-0.0807683
125	0xbc4cecd0	-0.012507632
126	0x3daed741	0.0853715
127	0xbd02d7a0	-0.031943917
128	0xbb965ed0	-0.0045889392
129	0x3d6b97c2	0.057517774
130	0x3d403562	0.04692591
131	0xbd8f9205	-0.07010273
132	0xbd2ac1da	-0.041688778
133	0xbb968fd0	-0.0045947805
134	0xbcab3d80	-0.020903349
135	0x3c477540	0.012173951
136	0x3d046bc6	0.032329343
137	0xbda7f6c6	-0.08201365
138	0x3d07b7e6	0.033134364
139	0xbd5e2c7d	-0.054241646
140	0x3d4d2892	0.05008752
141	0x3daaa785	0.08332733
142	0xbdb21c95	-0.08696858
143	0xbda971ce	-0.0827366
144	0x3c1fd3d8	0.009755097
145	0xbd22eb3a	-0.03977511
146	0x3cfe408c	0.031036638
147	0x3d66a91e	0.056313626
148	0x3c784e50	0.01515539
149	0x3dc25b85	0.09490112
150	0x3dc0ac8b	0.0940791
151	0x3d39b292	0.045336314
152	0xbdc4983b	-0.09599348
153	0x3da87869	0.082260914
154	0xbda67e43	-0.08129551
155	0x3bf71db0	0.007541381
156	0x3dbf703b	0.09347578
157	0xbd9fad33	-0.07796707
158	0xbd77358d	-0.060353804
159	0xbd5d2cca	-0.053997792
160	0x3b7fee00	0.003905177
161	0x3d2e7ffa	0.042602517
162	0xbbf47250	-0.007459916
163	0xbdaf8d23	-0.085718416
164	0xbc8867c0	-0.016651034
165	0xbdccc1fa	-0.099979356
166	0xbdcb9813	-0.09941115
167	0xba8a4c00	-0.0010551214
168	0xbc695270	-0.014240846
169	0xbc662bc0	-0.014048517
170	0xbc82a800	-0.01594925
171	0xbdc904cf	-0.0981537
172	0x3db3d749	0.08781297
173	0x3d136eea	0.035994448
174	0x3d8b008f	0.06787216
175	0xbc2039b0	-0.009779379
176	0xbd5eab73	-0.054362725
177	0xbbd14eb0	-0.006387554
178	0xbd4987f3	-0.049201917
179	0x3d76a4a2	0.0602156
180	0x3d458182	0.04821921
181	0x3d330f72	0.0437159
182	0xbd8b5035	-0.06802408
183	0x3da584f9	0.08082003
184	0xbdbb5e30	-0.09148824
185	0xbc8aa480	-0.016924143
186	0x3d989505	0.07450298
187	0xbc5d33a8	-0.013501085
188	0x3d4664a2	0.048435815
189	0xbc8402cc	-0.016114615
190	0xbc7f8830	-0.0155964345
191	0xbdc17f9d	-0.094481684
192	0xbd2f71bd	-0.04283308
193	0x3b872550	0.004124321
194	0x3cd9b59c	0.026575856
195	0xbd60f3c3	-0.05491997
196	0x3d9997c5	0.07499651
197	0x3da22791	0.07917703
198	0x3da81bc1	0.08208419
199	0x3d8717e5	0.065963544
200	0x3d383336	0.044970714
201	0xbd7c09dd	-0.061532844
202	0xbd801f22	-0.06255938
203	0x3d82cd7f	0.063868515
204	0xbcf144a0	-0.029451668
205	0xbbd7f460	-0.006590411
206	0xbd3cc2ed	-0.046084333
207	0xbd2b735d	-0.041858066
208	0xbc155c40	-0.009116232
209	0xbd5553fd	-0.05208205
210	0xbb7fc260	-0.0039025769
211	0xbc33d1e8	-0.0109753385
212	0x3db516d5	0.088422455
213	0xbd4d5baa	-0.050136246
214	0xbc108f90	-0.0088232905
215	0x3d046ece	0.032332234
216	0xbd7e9630	-0.06215495
217	0xbd25cc33	-0.040477943
218	0xbd2fda97	-0.042933073
219	0x3da2bc13	0.079460286
220	0x3d260a22	0.040537007
221	0x3d1f7116	0.038926207
222	0x3d5980ba	0.05310128
223	0x3cd52004	0.026016243
224	0xbcea2a58	-0.028584644
225	0xbd07b6aa	-0.033133186
226	0xbcdbac2c	-0.026815496
227	0x3d10e9b2	0.03537912
228	0x3c6499f0	0.013952717
229	0x3cbfeb48	0.02342762
230	0xbd783efa	-0.060606934
231	0xbd16cf8a	-0.03681902
232	0xbd489113	-0.04896648
233	0xbda2cf30	-0.07949674
234	0xba091000	-0.00052285194
235	0x3dbfaf61	0.09359623
236	0x3d64223e	0.05569672
237	0xbd807e5c	-0.06274101
238	0x3dc909b1	0.098163016
239	0xbd21f96d	-0.03954451
240	0x3d81eb51	0.06343711
241	0xbd4ed5a3	-0.05049671
242	0x3d9f8c61	0.07790447
243	0x3c1470f0	0.0090601295
244	0xbcf80fa0	-0.030280888
245	0xbbd1f430	-0.0064072832
246	0x3dbbeb9f	0.091758005
247	0x3dbe3a09	0.09288413
248	0xbcf531cc	-0.029930972
249	0x3d979337	0.07401126
250	0x3bcb6ba0	0.0062078983
251	0x3da681c9	0.08130223
252	0x3d885797	0.066573314
253	0x3caedb98	0.021344945
254	0xbc8ae248	-0.016953602
255	0xbd8caf15	-0.06869332

bias f4 [100]
0	0xbdb07c38	-0.08617443
1	0xbd8df380	-0.069312096
2	0xbd51dd70	-0.05123657
3	0x3b8d228b	0.0043070964
4	0xbd8c239a	-0.06842728
5	0xbcbb6ac0	-0.02287805
6	0xbdc9ce2f	-0.098537795
7	0x3d95e2e7	0.07318669
8	0x3d8f664c	0.070019335
9	0x3cd47dd6	0.02593891
10	0xbd9649cd	-0.07338295
11	0xbdbbfd23	-0.09179141
12	0xbdb72908	-0.08943373
13	0xbd97a586	-0.07404618
14	0x3be0f04f	0.0068645845
15	0xbdc58dff	-0.09646224
16	0x3d02b552	0.0319112
17	0x3d132a07	0.035928752
18	0x3dcd0348	0.100103915
19	0xbd968ae2	-0.073507085
20	0x3d92ab84	0.0716162
21	0x3d15250b	0.03641228
22	0xbd9d1835	-0.07670633
23	0x3d394bf3	0.045238446
24	0xbc289ab0	-0.010290787
25	0x3d1fa36d	0.038974214
26	0xbc1c07d0	-0.009523347
27	0xbd1df6ad	-0.038565326
28	0x3ca6b3b8	0.020349368
29	0x3dae7906	0.08519177
30	0x3c9570d3	0.018242275
31	0xbdaeb0c2	-0.085298076
32	0x3ce1e81f	0.027576504
33	0x3d6c4c3e	0.057689898
34	0x3d81616b	0.06317409
35	0x3d74238d	0.059604216
36	0xbdb22262	-0.08697964
37	0x3cdea952	0.027180348
38	0xbdbde75b	-0.09272643
39	0x3da4d7b3	0.08048954
40	0x3d814b95	0.06313244
41	0xbb9be26b	-0.0047572157
42	0x3d65b1b7	0.056077685
43	0xbdb1190f	-0.08647358
44	0x3d61807b	0.05505417
45	0x3d93e039	0.072205015
46	0x3cec53cf	0.028848557
47	0x3c8b85d1	0.017031582
48	0xbc1ab73f	-0.009443103
49	0xbd68d6cd	-0.056845475
50	0xbdb55a80	-0.08855152
51	0xbd7fd22a	-0.062456287
52	0x3dc96edd	0.098355986
53	0xbcdb08d8	-0.026737615
54	0x3da52e82	0.08065511
55	0xbbb0c2e9	-0.005394329
56	0xbcb74380	-0.022371054
57	0xbd8f13cb	-0.06986197
58	0x3d9702b7	0.07373565
59	0x3d95c1f0	0.07312381
60	0xbd8a6315	-0.0675718
61	0x3d87ceb5	0.06631223
62	0x3d4aba7f	0.049494263
63	0x3d9c9b14	0.07646766
64	0xbd7eb893	-0.062187742
65	0xbdbac523	-0.09119632
66	0x3dbc4512	0.091928616
67	0xbc5d81a8	-0.013519682
68	0x3da8d9b4	0.082446486
69	0x3db2da30	0.08733022
70	0xbcf3f560	-0.02978009
71	0xbcad3c28	-0.021146849
72	0xbdca22f2	-0.098699465
73	0xbdc27cf3	-0.094964884
74	0xbb640c8b	-0.0034797515
75	0xbca20d6c	-0.01978179
76	0x3d837333	0.06418457
77	0xbd143f80	-0.03619337
78	0x3c681605	0.014165406
79	0xbd4ac320	-0.049502492
80	0xbceb9714	-0.028758563
81	0xbc943b40	-0.018094659
82	0x3dafdac8	0.08586651
83	0xbd127b06	-0.035761856
84	0x3b6dc960	0.003628336
85	0xbdb33e9f	-0.087521784
86	0x3d72f19b	0.059312444
87	0xbd3cf053	-0.04612763
88	0x3c612f24	0.013744149
89	0xbdb3e382	-0.08783628
90	0x3d96923e	0.07352112
91	0x3d91575d	0.07096741
92	0xbd1186dc	-0.035529003
93	0x3d35ef08	0.04441741
94	0x3d150e47	0.03639057
95	0xbdad19ca	-0.084521845
96	0x3d7322ef	0.059359487
97	0x3d9d670f	0.076856725
98	0xbd1033f6	-0.035205804
99	0xbcf29018	-0.029609725

weight f4 [50, 100]
0	0x3a8ff680	0.0010983497
1	0xbcf6db74	-0.03013394
2	0xbc834a80	-0.016026735
3	0x3d46be06	0.048521064
4	0x3db08775	0.086195864
5	0xbb96ffb0	-0.004608117
6	0x3da3c2d3	0.07996144
7	0xbdb53272	-0.08847512
8	0xbcffb680	-0.031214952
9	0x3d4823b0	0.04886216
10	0x3d8bab91	0.06819833
11	0x3d8f7841	0.070053585
12	0x3cf666ec	0.030078374
13	0x3d1870d6	0.037216984
14	0xbd5e0cc1	-0.05421138
15	0xbc624e30	-0.013812587
16	0xbd33fc0c	-0.043941543
17	0x3dc87a17	0.09788912
18	0xbd2e2d94	-0.042523935
19	0xbd4e053a	-0.050297953
20	0xbd3b5565	-0.045735735
21	0x3d94a400	0.07257843
22	0xbc2c7bb0	-0.010527536
23	0xbdc0d942	-0.09416439
24	0x3d41e372	0.04733605
25	0xbd0c8d1a	-0.034314252
26	0xbd89ad08	-0.06722456
27	0x3b374540	0.002796486
28	0x3d7741df	0.060365554
29	0x3d1dbd62	0.038510688
30	0xbdabef0f	-0.08395206
31	0x3db7bc21	0.089714296
32	0xbd27af4e	-0.040938668
33	0x3b127ed1	0.002235342
34	0x3c46cd44	0.0121339
35	0x3db1414a	0.08655031
36	0xbd52e5c0	-0.051488638
37	0xbd6df45e	-0.058094375
38	0xbdb8cee3	-0.090238355
39	0x3d8390c4	0.06424096
40	0x3c821e3d	0.01588356
41	0xbd9d45ac	-0.076793045
42	0x3bc8c764	0.006127285
43	0xbd490333	-0.049075317
44	0xbd1bf749	-0.038077626
45	0xbdb0f592	-0.08640589
46	0x3d200e8c	0.039076373
47	0x3da24dd3	0.07925
48	0x3d83626c	0.06415257
49	0x3bef0d60	0.0072952956
50	0xbd11088a	-0.035408534
51	0x3cab5cc8	0.020918265
52	0xbd7370cf	-0.059433755
53	0x3d3605ae	0.04443901
54	0x3dbf1a85	0.0933123
55	0xbc14eca2	-0.009089621
56	0x3d1a9cda	0.03774724
57	0xbcad32d8	-0.021142408
58	0xbd12a2e1	-0.035799865
59	0x3d919f1b	0.07110425
60	0xbae032c0	-0.0017104968
61	0xbd55b572	-0.052174993
62	0x3c86df7f	0.016463993
63	0x3c9e9c28	0.01936157
64	0xbd975ed3	-0.07391133
65	0x3d366c02	0.044536598
66	0xbdc091c3	-0.09402802
67	0xbd313b33	-0.043269347
68	0xbc29a78e	-0.01035489
69	0x3cd27e1d	0.025694901
70	0x3d8e7c8f	0.069573514
71	0xbdb3804a	-0.087647036
72	0xbd0ac10a	-0.033875503
73	0x3d96fce1	0.073724516
74	0xbbe7b2c5	-0.0070708715
75	0xbd1b4550	-0.0379079
76	0xbd25d5ff	-0.040487286
77	0x3dc8995b	0.09794875
78	0xbc65be55	-0.0140224295
79	0x3d282d82	0.041059025
80	0x3b0a85a0	0.0021136776
81	0xbda0760a	-0.07835014
82	0xbbfba5b2	-0.0076796645
83	0x3d1cbf22	0.038268216
84	0x3d008e6a	0.031385817
85	0xbd973ff8	-0.07385248
86	0x3c11b8b0	0.008894131
87	0x3cdb6024	0.026779242
88	0x3c8eca9f	0.017430602
89	0xbc27ac90	-0.010234013
90	0xbceffb93	-0.029294765
91	0x3d71af56	0.059005104
92	0x3d95f7ff	0.07322692
93	0xbc4a8383	-0.012360456
94	0x3d98eb3b	0.07466742
95	0xb8e0d400	-0.000107206404
96	0x3dad903b	0.084747754
97	0xbd08b342	-0.03337408
98	0x3d228992	0.03968198
99	0x3d0aa64e	0.033850007
100	0xbc5b49f0	-0.013384327
101	0x3da52965	0.08064536
102	0xbc766318	-0.015038274
103	0x3d4dd8b3	0.05025549
104	0xbd8fd8a6	-0.07023744
105	0xbd9b342d	-0.07578311
106	0x3da1a769	0.07893259
107	0xbceb07b1	-0.028690191
108	0xbcc63ec6	-0.024199855
109	0xbd7cbcf1	-0.061703626
110	0x3c0816b0	0.00830619
111	0x3c555f00	0.013023138
112	0xbbd7d0e0	-0.006586179
113	0x3d8ece03	0.06972887
114	0x3c747f85	0.014922981
115	0xbd7f08bd	-0.062264193
116	0x3d15e848	0.036598474
117	0xbdb4a305	-0.08820156
118	0xbdac7a04	-0.0842171
119	0x3d9500ff	0.072755806
120	0xbccb32d2	-0.024804506
121	0x3da344fd	0.07972143
122	0x3d71f7f2	0.05907435
123	0xbd4212cd	-0.04738121
124	0x3b93a460	0.004505679
125	0x3bef3357	0.0072998214
126	0xbcd61128	-0.026131228
127	0xbd79c9a7	-0.060983326
128	0x3da1b9b1	0.07896746
129	0x3d0434c2	0.032276876
130	0x3d04a057	0.032379474
131	0xbd7eebba	-0.062236525
132	0xbb972cba	-0.004613486
133	0x3da38f70	0.07986343
134	0xbc7a6a41	-0.015284122
135	0xbd599fe3	-0.053130995
136	0xbdbdc32a	-0.0926574
137	0x3dcb522b	0.09927782
138	0xbd7d1dc3	-0.06179596
139	0xbdaf9de2	-0.08575036
140	0xbcdf6ec1	-0.027274491
141	0x3c76aba4	0.015055571
142	0xbd375090	-0.044754565
143	0xba310280	-0.00067523867
144	0x3d007199	0.031358335
145	0xbdbda0b4	-0.09259167
146	0x3d2f6469	0.042820368
147	0x3dc938b7	0.098252706
148	0xbdc2be7b	-0.095089875
149	0x3d18a92a	0.037270702
150	0xbc90ade8	-0.01766105
151	0x3c44b518	0.012006067
152	0xbd8745cc	-0.066051096
153	0x3dae41b9	0.08508629
154	0xbd05529d	-0.03254949
155	0x3c443ec5	0.011977856
156	0xbc9b9400	-0.01899147
157	0xbc23cb68	-0.009997226
158	0xbd90d9e6	-0.07072811
159	0x3d51872f	0.05115431
160	0x3d844a87	0.064595275
161	0xbb62d44b	-0.00346114
162	0x3dc7a613	0.09748473
163	0xbd970da1	-0.073756464
164	0xbdc41e6f	-0.09576117
165	0x3d610fe6	0.054946803
166	0xbd94a65d	-0.07258294
167	0xba85a0c0	-0.0010195002
168	0xbd275930	-0.04085654
169	0xbd76e72a	-0.06027905
170	0x3d5ac266	0.05340805
171	0x3dc5c90d	0.09657488
172	0xbd139cc4	-0.036038175
173	0xbd94b1cb	-0.07260474
174	0x3bd808b4	0.0065928344
175	0x3cf450cc	0.029823683
176	0x3dafa834	0.08577004
177	0xbcbbdfc8	-0.022933856
178	0x3cf2a1e5	0.029618213
179	0x3cbddca8	0.023176506
180	0xbdb15ddb	-0.0866048
181	0x3d92eeb9	0.07174439
182	0xbdc2c0c4	-0.095094234
183	0x3d459c22	0.048244603
184	0xbd6837eb	-0.056693953
185	0x3ca119c0	0.019665599
186	0xbd429729	-0.04750744
187	0x3d1f85f6	0.038946114
188	0xbbed4ae4	-0.0072415937
189	0x3d27abee	0.04093545
190	0x3d50b31f	0.050952073
191	0xbd1af9d8	-0.037835926
192	0x3d13ed62	0.036115058
193	0x3d9cd489	0.07657725
194	0xbd75ba83	-0.059992325
195	0xbdc20165	-0.09472922
196	0xbbfa51d3	-0.0076391487
197	0xbc0a8d85	-0.008456592
198	0xbdc485f2	-0.095958605
199	0xb9d4b200	-0.0004056841
200	0x3dca5893	0.098801754
201	0x3b9aedd0	0.0047280565
202	0x3dac4d77	0.08413213
203	0x3d822b2a	0.06355889
204	0x3b927400	0.0044693947
205	0xbce8b88c	-0.028408311
206	0x3d480d82	0.048841007
207	0x3d9df2a0	0.07712293
208	0x3d5d1e81	0.05398417
209	0xbdbae9da	-0.09126635
210	0x3d4b1036	0.049576007
211	0xbd75bc4d	-0.05999403
212	0x3d8cd0cf	0.068757646
213	0xbd7da91d	-0.061928857
214	0xbd3d2aae	-0.04618328
215	0x3dc7ba31	0.0975231
216	0x3be3dcf3	0.0069538294
217	0xbc037a41	-0.008024753
218	0xbda3519c	-0.0797455
219	0x3cf24ef4	0.029578663
220	0xbdbadb7e	-0.09123896
221	0x3d3e2001	0.04641724
222	0x3c00be70	0.007857904
223	0x3d9ec67e	0.07752703
224	0xbd78482d	-0.060615707
225	0x3cd8ea5b	0.026478937
226	0xbdc7268f	-0.09724151
227	0xbd915928	-0.07097083
228	0x3cf03208	0.029320732
229	0x3c7af70c	0.01531769
230	0xbd0ac75c	-0.03388153
231	0xbdb3aee2	-0.087735906
232	0xbc16f4ff	-0.009213685
233	0xbd80ba78	-0.06285566
234	0xbd595bae	-0.05306595
235	0xbdaffb70	-0.0859288
236	0xbb1a6040	-0.0023555905
237	0xbc12e23f	-0.008965074
238	0x3da58f4f	0.080839746
239	0xbdacdb94	-0.08440319
240	0x3da7693e	0.0817437
241	0xbdb83c66	-0.08995895
242	0x3c64dddf	0.013968914
243	0x3d29b05e	0.041427962
244	0xbc51a777	-0.012796274
245	0x3d559bad	0.052150417
246	0xbd8c3847	-0.068466716
247	0x3dac38d4	0.084092766
248	0x3d9b7fc9	0.075927325
249	0x3d71b5c2	0.05901123
250	0xbdab578b	-0.08366307
251	0xbd34eba7	-0.044170048
252	0x3c915fde	0.017745908
253	0xbd212303	-0.03934003
254	0xbdab3078	-0.08358854
255	0xbd455a72	-0.04818196

bias f4 [50]
0	0xbd5323b7	-0.051547732
1	0xbd8d5d68	-0.069025815
2	0xbda5af22	-0.080900446
3	0x3c79cfb1	0.015247271
4	0xbd9046ad	-0.0704473
5	0xbd39f0f5	-0.04539581
6	0x3d220682	0.039556988
7	0x3d4ef914	0.05053051
8	0x3d71caa7	0.059031155
9	0xbca6521b	-0.020302823
10	0xbda7550e	-0.0817052
11	0xbda4123c	-0.080112904
12	0xbd6b15e6	-0.05739393
13	0xbd5eaabc	-0.054362044
14	0x3d986ab2	0.074422255
15	0x3d8b8e76	0.06814282
16	0xbd21f2f8	-0.039538354
17	0xbdb75684	-0.089520484
18	0xbcc8770f	-0.024470834
19	0xbd628473	-0.055302095
20	0xbac03beb	-0.0014666294
21	0x3d7a8d86	0.061170124
22	0xbda9c2ec	-0.082891315
23	0x3db2d9ab	0.08732923
24	0xbd6c2ae4	-0.05765809
25	0x3d273178	0.04081866
26	0x3c0ed704	0.008718256
27	0xbd2895de	-0.04115855
28	0xbd5060bd	-0.050873507
29	0xbc891d1f	-0.016737519
30	0xbd51b228	-0.051195294
31	0xbc438c93	-0.011935371
32	0xbda240ea	-0.079225376
33	0x3db985b6	0.090587065
34	0xbdb7595c	-0.08952591
35	0xbd99e6ee	-0.075147495
36	0xbd3d0fb8	-0.04615757
37	0xbd02378a	-0.031791247
38	0x3db7c77c	0.089735955
39	0x3da0676a	0.07832225
40	0x3dba5e46	0.091000125
41	0x3d2237b1	0.039603893
42	0x3dc59ed3	0.09649434
43	0x3daf3519	0.085550494
44	0x3cabd865	0.020977208
45	0x3c426ac8	0.011866279
46	0x3ce64aef	0.028111903
47	0x3d0f5b7e	0.034999363
48	0x3d3afda6	0.045652054
49	0x3dcb6332	0.099310294
